…
To enable them in other operations, rebuild TensorFlow with the appropriate compiler flags.
2022-06-18 19:11:30.469039: I tensorflow/core/common_runtime/gpu/gpu_device.cc:1525] Created device /job:localhost/replica:0/task:0/device:GPU:0 with 8076 MB memory:  -> device: 0, name: NVIDIA GeForce RTX 2080 Ti, pci bus id: 0000:65:00.0, compute capability: 7.5
Model: "sequential"
_________________________________________________________________
 Layer (type)                Output Shape              Param #   
=================================================================
 vgg16 (Functional)          (None, 7, 7, 512)         14714688  
                                                                 
 flatten (Flatten)           (None, 25088)             0         
                                                                 
 dropout (Dropout)           (None, 25088)             0         
                                                                 
 dense (Dense)               (None, 1536)              38536704  
                                                                 
 dropout_1 (Dropout)         (None, 1536)              0         
                                                                 
 dense_1 (Dense)             (None, 768)               1180416   
                                                                 
 dropout_2 (Dropout)         (None, 768)               0         
                                                                 
 dense_2 (Dense)             (None, 1)                 769       
                                                                 
=================================================================
Total params: 54,432,577
Trainable params: 39,717,889
Non-trainable params: 14,714,688
_________________________________________________________________
Epoch 1/60
2022-06-18 19:11:32.984315: I tensorflow/stream_executor/cuda/cuda_dnn.cc:368] Loaded cuDNN version 8201
…
