…
To enable them in other operations, rebuild TensorFlow with the appropriate compiler flags.
2022-06-15 09:26:48.365702: I tensorflow/core/common_runtime/gpu/gpu_device.cc:1525] Created device /job:localhost/replica:0/task:0/device:GPU:0 with 8076 MB memory:  -> device: 0, name: NVIDIA GeForce RTX 2080 Ti, pci bus id: 0000:65:00.0, compute capability: 7.5
Model: "sequential"
_________________________________________________________________
 Layer (type)                Output Shape              Param #   
=================================================================
 conv2d (Conv2D)             (None, 222, 222, 56)      560       
                                                                 
 max_pooling2d (MaxPooling2D  (None, 111, 111, 56)     0         
 )                                                               
                                                                 
 conv2d_1 (Conv2D)           (None, 109, 109, 112)     56560     
                                                                 
 max_pooling2d_1 (MaxPooling  (None, 54, 54, 112)      0         
 2D)                                                             
                                                                 
 conv2d_2 (Conv2D)           (None, 52, 52, 112)       113008    
                                                                 
 max_pooling2d_2 (MaxPooling  (None, 26, 26, 112)      0         
 2D)                                                             
                                                                 
 conv2d_3 (Conv2D)           (None, 24, 24, 56)        56504     
                                                                 
 max_pooling2d_3 (MaxPooling  (None, 12, 12, 56)       0         
 2D)                                                             
                                                                 
 conv2d_4 (Conv2D)           (None, 10, 10, 56)        28280     
                                                                 
 max_pooling2d_4 (MaxPooling  (None, 5, 5, 56)         0         
 2D)                                                             
                                                                 
 conv2d_5 (Conv2D)           (None, 3, 3, 56)          28280     
                                                                 
 max_pooling2d_5 (MaxPooling  (None, 1, 1, 56)         0         
 2D)                                                             
                                                                 
 flatten (Flatten)           (None, 56)                0         
                                                                 
 dense (Dense)               (None, 2048)              116736    
                                                                 
 dropout (Dropout)           (None, 2048)              0         
                                                                 
 dense_1 (Dense)             (None, 2048)              4196352   
                                                                 
 dropout_1 (Dropout)         (None, 2048)              0         
                                                                 
 dense_2 (Dense)             (None, 2048)              4196352   
                                                                 
 dropout_2 (Dropout)         (None, 2048)              0         
                                                                 
 dense_3 (Dense)             (None, 1)                 2049      
                                                                 
=================================================================
Total params: 8,794,681
Trainable params: 8,794,681
Non-trainable params: 0
_________________________________________________________________
Epoch 1/60
2022-06-15 09:26:53.575405: I tensorflow/stream_executor/cuda/cuda_dnn.cc:368] Loaded cuDNN version 8201
287/287 [==============================] - 25s 54ms/step - loss: 0.2527 - accuracy: 0.5563 - val_loss: 0.1958 - val_accuracy: 0.7333
…
